…
/labs/colab/CS584-Spring2021/Lungs-CT/2d_masks/ID_0000_Z_0142.tif
X_train - len/shape: 240 (240, 256, 256, 1)
Y_train is (240, 256, 256, 1), min is 0.0, max is 1.0, mean is 0.23402748107910157
X_test  - len/shape: 27 (27, 256, 256, 1)
(267, 256, 256, 1)
Model: "functional_1"
__________________________________________________________________________________________________
Layer (type)                    Output Shape         Param #     Connected to                     
==================================================================================================
img (InputLayer)                [(None, 256, 256, 1) 0                                            
__________________________________________________________________________________________________
batch_normalization (BatchNorma (None, 256, 256, 1)  4           img[0][0]                        
__________________________________________________________________________________________________
conv2d (Conv2D)                 (None, 256, 256, 32) 320         batch_normalization[0][0]        
__________________________________________________________________________________________________
conv2d_1 (Conv2D)               (None, 256, 256, 32) 9248        conv2d[0][0]                     
__________________________________________________________________________________________________
max_pooling2d (MaxPooling2D)    (None, 128, 128, 32) 0           conv2d_1[0][0]                   
__________________________________________________________________________________________________
dropout (Dropout)               (None, 128, 128, 32) 0           max_pooling2d[0][0]              
__________________________________________________________________________________________________
conv2d_2 (Conv2D)               (None, 128, 128, 64) 18496       dropout[0][0]                    
__________________________________________________________________________________________________
conv2d_3 (Conv2D)               (None, 128, 128, 64) 36928       conv2d_2[0][0]                   
__________________________________________________________________________________________________
max_pooling2d_1 (MaxPooling2D)  (None, 64, 64, 64)   0           conv2d_3[0][0]                   
__________________________________________________________________________________________________
dropout_1 (Dropout)             (None, 64, 64, 64)   0           max_pooling2d_1[0][0]            
__________________________________________________________________________________________________
conv2d_4 (Conv2D)               (None, 64, 64, 128)  73856       dropout_1[0][0]                  
__________________________________________________________________________________________________
conv2d_5 (Conv2D)               (None, 64, 64, 128)  147584      conv2d_4[0][0]                   
__________________________________________________________________________________________________
max_pooling2d_2 (MaxPooling2D)  (None, 32, 32, 128)  0           conv2d_5[0][0]                   
__________________________________________________________________________________________________
dropout_2 (Dropout)             (None, 32, 32, 128)  0           max_pooling2d_2[0][0]            
__________________________________________________________________________________________________
conv2d_6 (Conv2D)               (None, 32, 32, 256)  295168      dropout_2[0][0]                  
__________________________________________________________________________________________________
conv2d_7 (Conv2D)               (None, 32, 32, 256)  590080      conv2d_6[0][0]                   
__________________________________________________________________________________________________
max_pooling2d_3 (MaxPooling2D)  (None, 16, 16, 256)  0           conv2d_7[0][0]                   
__________________________________________________________________________________________________
dropout_3 (Dropout)             (None, 16, 16, 256)  0           max_pooling2d_3[0][0]            
__________________________________________________________________________________________________
conv2d_8 (Conv2D)               (None, 16, 16, 512)  1180160     dropout_3[0][0]                  
__________________________________________________________________________________________________
conv2d_9 (Conv2D)               (None, 16, 16, 512)  2359808     conv2d_8[0][0]                   
__________________________________________________________________________________________________
conv2d_transpose (Conv2DTranspo (None, 32, 32, 256)  524544      conv2d_9[0][0]                   
__________________________________________________________________________________________________
concatenate (Concatenate)       (None, 32, 32, 512)  0           conv2d_transpose[0][0]           
                                                                 conv2d_7[0][0]                   
__________________________________________________________________________________________________
dropout_4 (Dropout)             (None, 32, 32, 512)  0           concatenate[0][0]                
__________________________________________________________________________________________________
conv2d_10 (Conv2D)              (None, 32, 32, 256)  1179904     dropout_4[0][0]                  
__________________________________________________________________________________________________
conv2d_11 (Conv2D)              (None, 32, 32, 256)  590080      conv2d_10[0][0]                  
__________________________________________________________________________________________________
conv2d_transpose_1 (Conv2DTrans (None, 64, 64, 128)  131200      conv2d_11[0][0]                  
__________________________________________________________________________________________________
concatenate_1 (Concatenate)     (None, 64, 64, 256)  0           conv2d_transpose_1[0][0]         
                                                                 conv2d_5[0][0]                   
__________________________________________________________________________________________________
dropout_5 (Dropout)             (None, 64, 64, 256)  0           concatenate_1[0][0]              
__________________________________________________________________________________________________
conv2d_12 (Conv2D)              (None, 64, 64, 128)  295040      dropout_5[0][0]                  
__________________________________________________________________________________________________
conv2d_13 (Conv2D)              (None, 64, 64, 128)  147584      conv2d_12[0][0]                  
__________________________________________________________________________________________________
conv2d_transpose_2 (Conv2DTrans (None, 128, 128, 64) 32832       conv2d_13[0][0]                  
__________________________________________________________________________________________________
concatenate_2 (Concatenate)     (None, 128, 128, 128 0           conv2d_transpose_2[0][0]         
                                                                 conv2d_3[0][0]                   
__________________________________________________________________________________________________
dropout_6 (Dropout)             (None, 128, 128, 128 0           concatenate_2[0][0]              
__________________________________________________________________________________________________
conv2d_14 (Conv2D)              (None, 128, 128, 64) 73792       dropout_6[0][0]                  
__________________________________________________________________________________________________
conv2d_15 (Conv2D)              (None, 128, 128, 64) 36928       conv2d_14[0][0]                  
__________________________________________________________________________________________________
conv2d_transpose_3 (Conv2DTrans (None, 256, 256, 32) 8224        conv2d_15[0][0]                  
__________________________________________________________________________________________________
concatenate_3 (Concatenate)     (None, 256, 256, 64) 0           conv2d_transpose_3[0][0]         
                                                                 conv2d_1[0][0]                   
__________________________________________________________________________________________________
dropout_7 (Dropout)             (None, 256, 256, 64) 0           concatenate_3[0][0]              
__________________________________________________________________________________________________
conv2d_16 (Conv2D)              (None, 256, 256, 32) 18464       dropout_7[0][0]                  
__________________________________________________________________________________________________
conv2d_17 (Conv2D)              (None, 256, 256, 32) 9248        conv2d_16[0][0]                  
__________________________________________________________________________________________________
conv2d_18 (Conv2D)              (None, 256, 256, 1)  33          conv2d_17[0][0]                  
==================================================================================================
Total params: 7,759,525
Trainable params: 7,759,523
Non-trainable params: 2
__________________________________________________________________________________________________
None
Epoch 1/50
 1/24 [>.............................] - ETA: 0s - loss: 0.9119 -
…
